…
    G_optimizer_clipgrad: None
    G_scheduler_type: MultiStepLR
    G_scheduler_milestones: [200000, 400000, 600000, 800000, 1000000, 2000000]
    G_scheduler_gamma: 0.5
    G_regularizer_orthstep: None
    G_regularizer_clipstep: None
    checkpoint_test: 5000
    checkpoint_save: 5000
    checkpoint_print: 200
  ]
  opt_path: options/train_msrresnet_psnr.json
  is_train: True

21-01-06 18:53:12.808 : Random seed: 7471
21-01-06 18:53:12.809 : Number of train images: 288, iters: 9
21-01-06 18:53:16.456 : 
Networks name: MSRResNet0
Params number: 1296000
Net structure:
MSRResNet0(
  (model): Sequential(
    (0): Conv2d(3, 64, kernel_size=(3, 3), stride=(1, 1), padding=(1, 1))
    (1): Identity + 
    |Sequential(
    |  (0): ResBlock(
    |    (res): Sequential(
    |      (0): Conv2d(64, 64, kernel_size=(3, 3), stride=(1, 1), padding=(1, 1))
    |      (1): ReLU(inplace=True)
    |      (2): Conv2d(64, 64, kernel_size=(3, 3), stride=(1, 1), padding=(1, 1))
    |    )
    |  )
    |  (1): ResBlock(
    |    (res): Sequential(
    |      (0): Conv2d(64, 64, kernel_size=(3, 3), stride=(1, 1), padding=(1, 1))
    |      (1): ReLU(inplace=True)
    |      (2): Conv2d(64, 64, kernel_size=(3, 3), stride=(1, 1), padding=(1, 1))
    |    )
    |  )
    |  (2): ResBlock(
    |    (res): Sequential(
    |      (0): Conv2d(64, 64, kernel_size=(3, 3), stride=(1, 1), padding=(1, 1))
    |      (1): ReLU(inplace=True)
    |      (2): Conv2d(64, 64, kernel_size=(3, 3), stride=(1, 1), padding=(1, 1))
    |    )
    |  )
    |  (3): ResBlock(
    |    (res): Sequential(
    |      (0): Conv2d(64, 64, kernel_size=(3, 3), stride=(1, 1), padding=(1, 1))
    |      (1): ReLU(inplace=True)
    |      (2): Conv2d(64, 64, kernel_size=(3, 3), stride=(1, 1), padding=(1, 1))
    |    )
    |  )
    |  (4): ResBlock(
    |    (res): Sequential(
    |      (0): Conv2d(64, 64, kernel_size=(3, 3), stride=(1, 1), padding=(1, 1))
    |      (1): ReLU(inplace=True)
    |      (2): Conv2d(64, 64, kernel_size=(3, 3), stride=(1, 1), padding=(1, 1))
    |    )
    |  )
    |  (5): ResBlock(
    |    (res): Sequential(
    |      (0): Conv2d(64, 64, kernel_size=(3, 3), stride=(1, 1), padding=(1, 1))
    |      (1): ReLU(inplace=True)
    |      (2): Conv2d(64, 64, kernel_size=(3, 3), stride=(1, 1), padding=(1, 1))
    |    )
    |  )
    |  (6): ResBlock(
    |    (res): Sequential(
    |      (0): Conv2d(64, 64, kernel_size=(3, 3), stride=(1, 1), padding=(1, 1))
    |      (1): ReLU(inplace=True)
    |      (2): Conv2d(64, 64, kernel_size=(3, 3), stride=(1, 1), padding=(1, 1))
    |    )
    |  )
    |  (7): ResBlock(
    |    (res): Sequential(
    |      (0): Conv2d(64, 64, kernel_size=(3, 3), stride=(1, 1), padding=(1, 1))
    |      (1): ReLU(inplace=True)
    |      (2): Conv2d(64, 64, kernel_size=(3, 3), stride=(1, 1), padding=(1, 1))
    |    )
    |  )
    |  (8): ResBlock(
    |    (res): Sequential(
    |      (0): Conv2d(64, 64, kernel_size=(3, 3), stride=(1, 1), padding=(1, 1))
    |      (1): ReLU(inplace=True)
    |      (2): Conv2d(64, 64, kernel_size=(3, 3), stride=(1, 1), padding=(1, 1))
    |    )
    |  )
    |  (9): ResBlock(
    |    (res): Sequential(
    |      (0): Conv2d(64, 64, kernel_size=(3, 3), stride=(1, 1), padding=(1, 1))
    |      (1): ReLU(inplace=True)
    |      (2): Conv2d(64, 64, kernel_size=(3, 3), stride=(1, 1), padding=(1, 1))
    |    )
    |  )
    |  (10): ResBlock(
    |    (res): Sequential(
    |      (0): Conv2d(64, 64, kernel_size=(3, 3), stride=(1, 1), padding=(1, 1))
    |      (1): ReLU(inplace=True)
    |      (2): Conv2d(64, 64, kernel_size=(3, 3), stride=(1, 1), padding=(1, 1))
    |    )
    |  )
    |  (11): ResBlock(
    |    (res): Sequential(
    |      (0): Conv2d(64, 64, kernel_size=(3, 3), stride=(1, 1), padding=(1, 1))
    |      (1): ReLU(inplace=True)
    |      (2): Conv2d(64, 64, kernel_size=(3, 3), stride=(1, 1), padding=(1, 1))
    |    )
    |  )
    |  (12): ResBlock(
    |    (res): Sequential(
    |      (0): Conv2d(64, 64, kernel_size=(3, 3), stride=(1, 1), padding=(1, 1))
    |      (1): ReLU(inplace=True)
    |      (2): Conv2d(64, 64, kernel_size=(3, 3), stride=(1, 1), padding=(1, 1))
    |    )
    |  )
    |  (13): ResBlock(
    |    (res): Sequential(
    |      (0): Conv2d(64, 64, kernel_size=(3, 3), stride=(1, 1), padding=(1, 1))
    |      (1): ReLU(inplace=True)
    |      (2): Conv2d(64, 64, kernel_size=(3, 3), stride=(1, 1), padding=(1, 1))
    |    )
    |  )
    |  (14): ResBlock(
    |    (res): Sequential(
    |      (0): Conv2d(64, 64, kernel_size=(3, 3), stride=(1, 1), padding=(1, 1))
    |      (1): ReLU(inplace=True)
    |      (2): Conv2d(64, 64, kernel_size=(3, 3), stride=(1, 1), padding=(1, 1))
    |    )
    |  )
    |  (15): ResBlock(
    |    (res): Sequential(
    |      (0): Conv2d(64, 64, kernel_size=(3, 3), stride=(1, 1), padding=(1, 1))
    |      (1): ReLU(inplace=True)
    |      (2): Conv2d(64, 64, kernel_size=(3, 3), stride=(1, 1), padding=(1, 1))
    |    )
    |  )
    |  (16): Conv2d(64, 64, kernel_size=(3, 3), stride=(1, 1), padding=(1, 1))
    |)
    (2): Upsample(scale_factor=3.0, mode=nearest)
    (3): Conv2d(64, 64, kernel_size=(3, 3), stride=(1, 1), padding=(1, 1))
    (4): ReLU(inplace=True)
    (5): Conv2d(64, 64, kernel_size=(3, 3), stride=(1, 1), padding=(1, 1))
    (6): ReLU(inplace=True)
    (7): Conv2d(64, 3, kernel_size=(3, 3), stride=(1, 1), padding=(1, 1), bias=False)
  )
)

21-01-06 18:53:16.477 : 
 |  mean  |  min   |  max   |  std   || shape               
 |  0.001 | -0.079 |  0.084 |  0.025 | torch.Size([64, 3, 3, 3]) || model.0.weight
 |  0.000 |  0.000 |  0.000 |  0.000 | torch.Size([64]) || model.0.bias
 | -0.000 | -0.032 |  0.034 |  0.008 | torch.Size([64, 64, 3, 3]) || model.1.sub.0.res.0.weight
…
